Retraining_on_Ataxia/gnn_model_ataxia - final.pth (torch, 30839 bytes, 4 tensors)

conv1.lin.weight f4 [64, 107]
0	0xbc8a6ba7	-0.016897036
1	0x3cf6f587	0.030146373
2	0x3d03b834	0.03215809
3	0xb9e96ee8	-0.00044523855
4	0x3c495b1c	0.012289789
5	0x3d3885ed	0.045049597
6	0x3d986420	0.07440972
7	0x3c966167	0.018356992
8	0x3d86cd17	0.065820865
9	0xbd9f5351	-0.07779563
10	0xbcd1d907	-0.025616182
11	0xbd88cc2d	-0.066795684
12	0xbc2743a3	-0.010208997
13	0xbc8f3fc0	-0.017486453
14	0x3d5ceb69	0.053935442
15	0x3d982643	0.07429173
16	0xbdbc21ff	-0.09186172
17	0xbd1f90b1	-0.038956348
18	0x3d848171	0.064700015
19	0x3dafebd8	0.085899055
20	0x3dd81280	0.105504036
21	0x3dd125c9	0.10212285
22	0x3c2c0d90	0.01050128
23	0x3ce2c3cf	0.02768126
24	0xbd88c4f2	-0.06678189
25	0xbdaf640d	-0.08564005
26	0xbd82481d	-0.06361411
27	0xbd6e91af	-0.058244403
28	0x3d664565	0.056218524
29	0xbcb18d91	-0.02167395
30	0xbd5592ec	-0.05214207
31	0x3cc755a7	0.024332834
32	0x3d2493db	0.04018007
33	0xbd87498a	-0.06605823
34	0xbc5e86bf	-0.013581931
35	0xbdaab345	-0.08334974
36	0x3bb04791	0.005379625
37	0x3cba9e24	0.022780485
38	0xba2ab2d3	-0.0006511632
39	0xbdb75a3d	-0.089527585
40	0xbd56dafd	-0.052454937
41	0xbdaacae9	-0.08339483
42	0x3cc6e85b	0.024280718
43	0x3d707b07	0.058711078
44	0x3d9f8634	0.07789269
45	0xbd1d482c	-0.038398907
46	0x3ca1fc83	0.019773727
47	0xbd86e18b	-0.06585988
48	0xbd8bbfaa	-0.068236664
49	0xbcbe778c	-0.023250364
50	0xbd2197e9	-0.039451513
51	0x3dc91247	0.09817939
52	0xbc90c554	-0.017672218
53	0xbd3f04bf	-0.046635386
54	0x3dbc05ce	0.09180795
55	0xbd59eb8a	-0.053203143
56	0xbdb2825e	-0.08716272
57	0xbd2ebafc	-0.04265879
58	0x3cc2b9de	0.023770269
59	0x3da6fa89	0.081532545
60	0xbd617d59	-0.05505118
61	0xbdaa5767	-0.08317452
62	0x3cb53208	0.022118583
63	0x3b8b5805	0.004252436
64	0x3d96b7b3	0.073592566
65	0x3ca0a194	0.019608296
66	0x3d2fa307	0.042880084
67	0xbd5b1e12	-0.053495474
68	0xbc3bb50b	-0.011456738
69	0xbd98103e	-0.07424973
70	0xbd9d3fb4	-0.07678166
71	0x3d602096	0.054718576
72	0xbceafb11	-0.02868417
73	0xbdab017f	-0.08349895
74	0x3c1b825c	0.009491529
75	0x3c3efbc3	0.011656704
76	0x3a881bd6	0.0010384272
77	0x3d56d9ce	0.05245381
78	0xbd3b01db	-0.045656066
79	0x3dc8be5f	0.098019354
80	0xbdba9ae5	-0.09111575
81	0xbd1880a4	-0.037232056
82	0x3cdfabac	0.02730354
83	0xbd845d64	-0.06463125
84	0xbd85d1f6	-0.065341875
85	0xbd6c94e8	-0.057759196
86	0xbd6bd82b	-0.0575792
87	0x3bf69590	0.0075251535
88	0x3dbcceea	0.09219153
89	0x3d33dc9c	0.04391156
90	0xbdc9ac51	-0.0984732
91	0x3d9d8e76	0.07693188
92	0xbc892ddc	-0.0167455
93	0x3d8c8bdd	0.06862614
94	0xbdcb94ab	-0.099404655
95	0xbdc75ff3	-0.09735098
96	0x3d7478c5	0.059685487
97	0x3b356db1	0.002768379
98	0x3cd6f5c0	0.02624023
99	0x3dbac86f	0.09120261
100	0xb9f02831	-0.00045806312
101	0xbd98730f	-0.07443821
102	0xbda38bb4	-0.07985631
103	0xbcb3f7eb	-0.021968802
104	0xbc5c7185	-0.0134548
105	0xbd6ebe68	-0.058287054
106	0xbd909d46	-0.070612475
107	0xbdd97944	-0.10618833
108	0xbd14f2fa	-0.036364533
109	0x3d7b1608	0.061300308
110	0x3c6a53be	0.014302192
111	0xbd03f476	-0.032215558
112	0x3cd4a9ef	0.025959937
113	0x3c9a2aa8	0.018819168
114	0x3d5037c2	0.050834425
115	0x3cffe282	0.031235937
116	0xbd9b9c36	-0.07598154
117	0x3d64d174	0.055863813
118	0x3d200576	0.039067708
119	0xbdf4411b	-0.119264804
120	0xbe2ec6d7	-0.17068039
121	0xbe4359f0	-0.19077277
122	0xbddf0882	-0.108902946
123	0x3dc7127a	0.09720321
124	0xbe269a04	-0.1626969
125	0xbc25c041	-0.010116638
126	0xbe2674cc	-0.16255492
127	0xbe4699e6	-0.19394645
128	0xbd4c655d	-0.049901355
129	0x3e004dff	0.12529753
130	0xbe145a81	-0.1448765
131	0xbe1b7d3c	-0.15184492
132	0xbdb6ceb4	-0.08926144
133	0xbdacb053	-0.08432069
134	0x3d0a6eb9	0.033797
135	0xbc9baa6f	-0.019002168
136	0xbe063b3c	-0.13108534
137	0x3e490298	0.19629896
138	0x3d62cfea	0.055374064
139	0x3d91c54e	0.07117711
140	0x3daff9f5	0.085925974
141	0xbcba3605	-0.022730837
142	0x3c1d687d	0.0096074315
143	0x3e3c0e82	0.1836491
144	0x3d220e8f	0.039564665
145	0x3b831294	0.0040000174
146	0x3de4fe69	0.111813374
147	0x3d1f541f	0.038898584
148	0x3d8493a4	0.06473473
149	0x3d1b6fd7	0.037948456
150	0x3e2021a8	0.15637839
151	0x3df13423	0.117775224
152	0xbc4922f7	-0.012276403
153	0xbd388c29	-0.045055542
154	0x3d471391	0.048602644
155	0x3ddacc41	0.106834896
156	0xbd8bb314	-0.06821266
157	0xbd183080	-0.03715563
158	0x3d96a375	0.07355396
159	0xbe3a6cc0	-0.18205547
160	0x3da7fe73	0.08202829
161	0x3cb32e1f	0.021872578
162	0x3e304e46	0.17217359
163	0x3dd2cbbc	0.102927655
164	0x3e1febc7	0.15617286
165	0x3c7ec703	0.015550378
166	0x3da1c440	0.0789876
167	0x3dcc0fe4	0.099639684
168	0x3dac7e01	0.08422471
169	0xbda7f8fa	-0.082017854
170	0x3e44cd38	0.1921891
171	0xbd943676	-0.0723695
172	0xbde45ba1	-0.11150289
173	0xbe239099	-0.15973128
174	0x3d0e49b3	0.034738254
175	0x3d0dd9cc	0.034631535
176	0x3e3e321f	0.18573807
177	0xbb4bedea	-0.003111715
178	0x3e0bf9aa	0.13669458
179	0xbd2dac2e	-0.04240053
180	0x3e2cbdb7	0.16869245
181	0xbd13c35a	-0.036074974
182	0x3d6754a1	0.056477193
183	0x3e1c56b5	0.15267451
184	0x3c9306f0	0.017947644
185	0x3c0b456e	0.00850044
186	0xbd42ed57	-0.047589626
187	0xbcec8691	-0.02887276
188	0xbc874fcb	-0.01651754
189	0xbbed9a1a	-0.0072510364
190	0xbc5203bb	-0.012818272
191	0x3d2cde9a	0.042204477
192	0xbb632b59	-0.0034663288
193	0x3d60bf8e	0.05487018
194	0x3ddcc3a8	0.10779506
195	0xbd3e9a6e	-0.046533994
196	0x3e101ba2	0.14073041
197	0x3e1a8a4d	0.1509182
198	0xbe30516d	-0.17218561
199	0x3d2d1ccf	0.042263802
200	0x3d94d2af	0.07266747
201	0x3daf4869	0.08558733
202	0x3dc5434a	0.09631975
203	0x3da10715	0.07862679
204	0xbdec9124	-0.11551121
205	0xbd84e439	-0.064888425
206	0xbe18ca09	-0.1492082
207	0xbc532597	-0.01288738
208	0x3d25fad1	0.0405224
209	0x3d96a92b	0.07356485
210	0x3cedec7e	0.029043432
211	0xbdffbee2	-0.1248758
212	0x3d49b153	0.049241375
213	0x3e301d54	0.17198688
214	0xbd98d801	-0.074630745
215	0x3d1811e6	0.037126444
216	0xbd03eec6	-0.032210134
217	0xbd4ce7a0	-0.050025582
218	0x3ca636fd	0.020289892
219	0x3d4ad643	0.049520742
220	0xbc6ed078	-0.01457607
221	0x3cb092b7	0.021554334
222	0xbc8585f7	-0.016299231
223	0x3d8af1db	0.067844115
224	0x3e3019ee	0.17197391
225	0x3da35568	0.07975274
226	0xbceeca30	-0.029149145
227	0xbd9ef355	-0.07761256
228	0xbd911a35	-0.07085077
229	0x3e07bb7a	0.1325511
230	0xbda03e33	-0.078243636
231	0x3d804a3e	0.062641606
232	0xbd795eb6	-0.06088134
233	0x3d011f60	0.031524062
234	0xbd80584f	-0.062668435
235	0xbdc13f75	-0.094359316
236	0x3dbf1c4f	0.09331571
237	0x3cd9f73a	0.026607145
238	0xbd5e8fcc	-0.054336354
239	0xbe06a04b	-0.13147084
240	0xbe149179	-0.14508618
241	0xbe0a5f5b	-0.13512938
242	0xbc02735d	-0.007962075
243	0xbe0b578b	-0.13607614
244	0x3bec9574	0.0072199646
245	0xbe0d021c	-0.13770336
246	0x3cacdcd0	0.021101385
247	0x3d631b5b	0.05544601
248	0x3d066667	0.032812502
249	0xbbd33b3b	-0.00644627
250	0x3d165e9f	0.03671133
251	0x3bca732f	0.0061782817
252	0x3de4a534	0.111643225
253	0x3a92776b	0.0011174505
254	0x3e1b2ea9	0.15154518
255	0x3de0b808	0.10972601

conv1.lin.bias f4 [64]
0	0x3d2fac50	0.04288894
1	0xbdbc67f5	-0.09199516
2	0xbd842e20	-0.0645411
3	0xbda75ede	-0.08172391
4	0xbbe304f4	-0.0069280807
5	0x3d0cc6ef	0.034369405
6	0x3d86de7f	0.065854065
7	0xbc15637f	-0.00911796
8	0x3d92569f	0.07145428
9	0x3d4a1187	0.04933312
10	0xbda2a5d7	-0.07941788
11	0xbc5ac84d	-0.0133534195
12	0xbc622a49	-0.013804027
13	0x3db29e1f	0.087215655
14	0xbcdf023a	-0.027222741
15	0x3d1e0fcf	0.038589295
16	0xbd912bbf	-0.07088422
17	0x3e0f6abb	0.14005558
18	0x3d0d1095	0.034439642
19	0xbc00b284	-0.007855061
20	0x3c539e94	0.012916226
21	0x3c90a453	0.01765648
22	0x3d7e07bf	0.062019106
23	0x3d953ae6	0.072866246
24	0x3c9dfe8a	0.019286413
25	0xbd8a0252	-0.06738724
26	0x3e21d715	0.15804704
27	0x3c35d014	0.011096973
28	0x3df66958	0.120318115
29	0xbd165845	-0.036705274
30	0xbd911d59	-0.07085676
31	0xbcb0c984	-0.021580465
32	0xbdcc2ae9	-0.09969122
33	0x3e2c571e	0.16830108
34	0xbd250291	-0.04028565
35	0x3d5d3cca	0.05401305
36	0xbb4e56a2	-0.0031484743
37	0x3dfa4df0	0.12221897
38	0x3e07e09e	0.13269278
39	0x3b41fecc	0.0029601334
40	0xbd8e2ab4	-0.06941739
41	0xbc83c3c2	-0.016084556
42	0x3da08574	0.07837954
43	0x3d81609b	0.06317254
44	0xbd55598f	-0.052087363
45	0x3d8acc10	0.06777203
46	0xbd721906	-0.059105895
47	0xbcfe5722	-0.031047408
48	0xbcb07163	-0.021538442
49	0x3d44da75	0.0480599
50	0x3dd3a6de	0.10334562
51	0xbd5fe4dd	-0.05466162
52	0xbd87b8fd	-0.066270806
53	0x3d1af63d	0.037832487
54	0x3bfdbb9e	0.007743313
55	0x3e324e50	0.17412686
56	0x3e10eb3e	0.14152238
57	0xbb2cf4eb	-0.00263911
58	0xbcc68f5a	-0.024238277
59	0x3ce2d215	0.027688066
60	0x3e2ca113	0.1685832
61	0x3e11cc66	0.14238128
62	0x3d9218b4	0.07133618
63	0xbd147f0a	-0.036253966

conv2.lin.weight f4 [2, 64]
0	0xbd81b765	-0.06333808
1	0x3d662b74	0.056193784
2	0x3e481862	0.19540551
3	0x3d2d2d44	0.042279497
4	0xbe38aa71	-0.18033768
5	0x3e3eb956	0.18625388
6	0x3d9e3dbe	0.0772662
7	0x3e4a5a78	0.19761074
8	0x3e0c82f8	0.13721836
9	0xbe1dd582	-0.15413478
10	0x3db4eeda	0.0883462
11	0x3dc0c771	0.094130404
12	0x3e064c6c	0.1311509
13	0xbe5c8416	-0.21534762
14	0xbdc56b42	-0.096395984
15	0xbd8afb89	-0.06786258
16	0x3e1fe07a	0.15612975
17	0xbe2a478c	-0.16628855
18	0x3e49c22c	0.19702977
19	0xbce45d59	-0.027876543
20	0x3dc9c9f7	0.09852975
21	0xbe2beded	-0.1678998
22	0x3e3b4def	0.18291448
23	0x3d83c3d7	0.06433838
24	0xbe5b0a87	-0.21390735
25	0x3e439595	0.1910003
26	0xbe499351	-0.19685103
27	0x3e34e324	0.17664772
28	0xbd61aeaf	-0.055098232
29	0xbd7e14bc	-0.062031493
30	0x3dce7778	0.100813806
31	0x3e46a94b	0.19400518
32	0x3e2ab596	0.16670832
33	0xbda93b2c	-0.08263239
34	0x3dedcf17	0.11611765
35	0xbe65a5c3	-0.22426514
36	0xbe2023a8	-0.15638602
37	0xbd230bf6	-0.03980633
38	0xbe428699	-0.18996657
39	0x3d7f34a0	0.062306046
40	0xbd9536e6	-0.07285862
41	0xbe48247d	-0.19545169
42	0xbdc023f6	-0.09381859
43	0xbe6822ee	-0.22669575
44	0xbe37c239	-0.17945184
45	0xbe03ae89	-0.12859549
46	0x3db2ab52	0.08724083
47	0xbe342aee	-0.17594501
48	0x3d387510	0.045033514
49	0x3e2b6253	0.16736726
50	0xbd87b2ae	-0.06625877
51	0x3d940a91	0.07228578
52	0x3dee8698	0.116467655
53	0xbda487d4	-0.0803372
54	0x3e0b9845	0.13632305
55	0xbe0d7689	-0.13814749
56	0xbdea2953	-0.11433663
57	0xbdab5acf	-0.0836693
58	0x3e09461f	0.13405655
59	0x3d7fb84d	0.062431622
60	0xbe30b3a6	-0.1725603
61	0xbd559538	-0.05214426
62	0x3dd83108	0.10556227
63	0x3deca1d6	0.11554305
64	0x3d497753	0.049186062
65	0xbe1419ff	-0.14463042
66	0xbe1d98f2	-0.15390375
67	0xbe4964e1	-0.19667388
68	0x3e3a8420	0.18214464
69	0xbd995a00	-0.07487869
70	0xbe0c50eb	-0.13702743
71	0xbdfc63a9	-0.12323696
72	0xbdeb4aed	-0.114889
73	0x3e0c5994	0.13706046
74	0xbe413cce	-0.18870851
75	0xbe4502ac	-0.192393
76	0xbd89c874	-0.067276865
77	0xbbeecdf4	-0.007287735
78	0x3d41f5d4	0.04735358
79	0x3e1f3014	0.15545684
80	0xbd767ca6	-0.060177468
81	0x3d263ff8	0.04058835
82	0xbad4abbe	-0.00162255
83	0x3e46ea7a	0.19425383
84	0xbe2e9321	-0.17048313
85	0x3d3d0f5d	0.04615723
86	0xbe06634e	-0.13123819
87	0xbdc3937c	-0.09549615
88	0xbc4b6c6d	-0.012415987
89	0xbda2ecc7	-0.07955318
90	0x3d8dded0	0.06927264
91	0xbe4b9b6b	-0.19883506
92	0x3e3dee24	0.18547875
93	0x3e35a1c1	0.17737485
94	0xbe11bd9b	-0.14232485
95	0x3b93772e	0.0045002913
96	0xbdc73bc4	-0.09728196
97	0x3dd614e8	0.10453206
98	0xbe59dc2a	-0.21275392
99	0x3e34db54	0.17661792
100	0x3e29d2b4	0.16584283
101	0x3e5cd77f	0.2156658
102	0x3e4b7233	0.19867782
103	0xbe3a037e	-0.18165395
104	0xbd9c792c	-0.07640299
105	0x3d98eec0	0.07467413
106	0x3e4be3ba	0.1991109
107	0x3e350bd2	0.1768029
108	0x3e3c16ba	0.18368044
109	0x3e05bec1	0.13061048
110	0xbe04420d	-0.12915821
111	0x3e1377d4	0.1440118
112	0x3db70455	0.08936373
113	0xbdb0a83e	-0.0862584
114	0x3e4cc57c	0.1999721
115	0xbe419777	-0.18905436
116	0xbe277d83	-0.16356473
117	0x3e10bd89	0.14134802
118	0xbe00f3d8	-0.12593019
119	0x3d5b8a98	0.05359897
120	0x3de8f4d1	0.1137482
121	0x3e1d707a	0.15374938
122	0xbe173a28	-0.14768279
123	0xbe1fc6f9	-0.15603246
124	0x3dfe4a00	0.12416458
125	0x3e3d26b6	0.18471798
126	0xbe39656f	-0.181051
127	0x3dc19c9c	0.09453699

conv2.lin.bias f4 [2]
0	0xbd48a81a	-0.04898844
1	0xbd8f8fd4	-0.07009855
