geneDRAGNN/retrain_ataxia/gnn_model_ataxia.pth (torch, 30839 bytes, 4 tensors)

conv1.lin.weight f4 [64, 107]
00000000: f45a fa3d 13d8 a43d 4e3f ebbb 36fe 2fbd
00000010: 863b c3bd e944 17be b720 a53d 2476 82bc
00000020: 3c77 5d3d d954 6fbd 94af b73c 591d bebb
00000030: be0f 003e 7008 313e 8ce5 243e ff53 15bc
00000040: 3ee6 b63d 7067 af3c 156e 5bbd 473e 7bbc
00000050: 6261 363e f3a3 3a3d 5318 c6bc ca58 dd3d
00000060: 0d8a efbd 3a35 b6b9 4c73 e539 cd57 8bbd
00000070: fbba 44bd 7b97 ad3d 45fa 15be a262 f33c
00000080: 9764 eabd 9910 cdbd 910c 2abd f65f 2dbc
00000090: d4e6 e8bd ff79 cdbb 5577 fa3c 1471 eabd
000000a0: 75f4 09be c95e a4bd 4c3c 25bd 0fd0 11be
000000b0: 7446 203d a0a2 cfbd b650 ae3c 18af 63bd
000000c0: 87ff f5bc 6e01 013d 8d9c 10bd b364 2fbe
000000d0: ed6b 103e f0f1 e8bd 3390 dd3c b2f1 6abd
000000e0: e733 05be 6f08 32be 7850 2bbe 9691 043e
000000f0: ff19 a73d 3256 4f3d afe8 b43c f559 bdbd
00000100: cf59 083e cef0 2dbd 43c6 123e 7a68 073b
00000110: 75be a8bc 7271 04be 05fa fe3d b038 b7bd
00000120: 0d44 9d3d 8728 bfbd d467 d13d d59a adbc
00000130: ed7c 1bbd ed62 d03c be88 2abc 6ebb df3b
00000140: dcaa 173e 1f61 673c 0ee7 f8bd d2c4 27bd
00000150: e1c1 d8bc 83df 1bbd d77e a4bd 453d 2d3e
00000160: 453b d53d 3c91 febd ecc8 5bbd 40a7 5e3d
00000170: 4cd4 ad3d 656e 15bd b582 bbbc 67ae b039
00000180: a43d f6bd 1986 153e 8ae4 cc3b 4fac 873c
00000190: 26b1 d43c e4d1 4ebd 8e57 d1bd 5897 09be
000001a0: d814 353d 304f c53d 5b81 283d 7f81 d2bd
000001b0: ae9c 67bd a95e 933c 820e 903d 7218 b13b
000001c0: 50f6 e13c 8cbf 963c 9fdc 303d abe5 8cbd
000001d0: ed1a f33d 34dc b53d 1247 c93d b59b 0bbc
000001e0: ee0a 3a3d a4b2 f2bd c29b 87bd c441 a43d
000001f0: 718b d43d 7b94 12bd 65d4 223d b605 9fbd
00000200: 2e1e 49bd da25 bb3b 2ec8 babd 90e3 22be
00000210: bad0 ad3b f736 89bd 2196 63bd 84e3 cebd
00000220: ba87 02be 0cad 123e 9f90 f83d e991 143e
00000230: 63fb 943d 06e7 823d 0c2b 4b3c 8581 b23d
00000240: 4122 1cbd 0263 8aba 7fee 013e 7584 443d
00000250: 762a d2bd 5e39 44bc f900 b3bd 27de 22bd
00000260: 301d f63d f90a b23c 830d 3f3c 9a98 4c3c
00000270: 7311 d5bc c18e 7dbd 21e3 ac3d f097 b0bd
00000280: b3e0 00be 5dd8 c83c 2e01 223e 35ea 0a3d
00000290: ccdb 933c e586 233e a805 94bd 9727 bfbc
000002a0: 9e6f a4bd cfd0 7e3c 26f1 1b3e 193f debd
000002b0: 1e07 09be 039c 74bd 8045 e83d 1c62 b3bd
000002c0: ef4e a23d 14df 08bd 05cb 473d ae8a 663d
000002d0: 3808 2a3d 99c1 89bc 81e3 99bc 8c93 013e
000002e0: d7ad e23c 5366 20bb 12fe 453c 011c e9bd
000002f0: 0371 023e 5970 eabd dd99 963d 4e70 153d
00000300: 7913 f2bb e847 db3d 1a89 fc3d 1df8 2fbc
00000310: ef0d 8a3d aaf5 de3c 4f5e f6bc 6276 b6bd
00000320: b358 cb3b c1d3 9dbd 41cd e43d ab75 973d
00000330: e335 07be b25b bc3d 37f1 93bd 97c4 89bc
00000340: f259 fb3d beac 88bd d477 663c 6591 01be
00000350: a94f d8bc be6d 9bba 6743 1cbd 790b 1f3d
00000360: 9b37 54bc c29d a2bd 9a55 94bc f660 ae3d
00000370: 2639 00bd a420 143e a850 9eba 5ad8 85bd
00000380: 5723 183b 5372 173e bb9e a43d 2e0e 66bc
00000390: 631b e0bd 3bb6 15bd ff43 1cbd 7bee 11bd
000003a0: 3624 4a3d 0723 8cbd 3866 5dbb f228 9abd
000003b0: 7d0d 8a3d 15b7 83ba ab55 543d 489f 3abe
000003c0: ab59 63bc df73 eabd add4 0cbe eaca 15be
000003d0: ba09 0c3e e734 cc3d f21a a83d 09a7 6dbb
000003e0: 0ef5 cbbd cc63 8abd 2334 163e 9aa6 a73c
000003f0: 2dc8 073d c41f dabc 0458 7abc 555a 8b3c
0.12224379 0.080490254 -0.0071791774 -0.042967044 -0.095328376 -0.14772381 0.080628805 -0.015925474
0.05406879 -0.058430526 0.02242259 -0.0058018384 0.12506005 0.17288375 0.1610319 -0.0091142645
0.08930634 0.021411628 -0.05357178 -0.015334672 0.17810586 0.04556651 -0.02418152 0.10807951
-0.11696253 -0.00034753402 0.00043764187 -0.06803856 -0.04802988 0.08476158 -0.14646251 0.029710118
-0.11444967 -0.100129314 -0.04151589 -0.010581961 -0.11372152 -0.0062706466 0.03057448 -0.11447349
-0.13472159 -0.08025891 -0.040340707 -0.14239524 0.03912969 -0.1013844 0.02127872 -0.055586904
-0.030029071 0.031495504 -0.03530555 -0.17128257 0.1410367 -0.11374271 0.027046299 -0.057359405
-0.1300808 -0.1738603 -0.16729915 0.12946162 0.08159255 0.05061931 0.022083608 -0.092456736
0.1331551 -0.042465977 0.14333443 0.0020661638 -0.02059863 -0.12933901 0.12450031 -0.08946359
0.07678995 -0.09333902 0.10224882 -0.021191994 -0.037960935 0.025437796 -0.010408578 0.0068277633
0.14811271 0.014122277 -0.12153445 -0.040959187 -0.026459636 -0.038054954 -0.08032005 0.16917904
0.104116954 -0.12430045 -0.05365841 0.05435872 0.08487758 -0.036482234 -0.022889474 0.00033699276
-0.12023476 0.14601935 0.00625283 0.016561655 0.025963377 -0.050493136 -0.10221778 -0.1343664
0.04420933 0.096342444 0.041138988 -0.10278606 -0.056545906 0.017989473 0.07034017 0.0054045254
0.027583271 0.018401884 0.04317915 -0.06879743 0.1187037 0.08879891 0.09828009 -0.00852101
0.04542058 -0.11850479 -0.06621505 0.08020356 0.10378159 -0.035786133 0.039753336 -0.07764761
-0.049101047 0.0057112994 -0.091202125 -0.1590712 0.005304423 -0.06699937 -0.055563096 -0.10101989
-0.12747088 0.14323825 0.12136959 0.14508785 0.07274511 0.063917205 0.0124004 0.0871611
-0.038118605 -0.0010558071 0.12688635 0.047977883 -0.10262005 -0.011976568 -0.0874042 -0.039762642
0.12017286 0.021733748 0.011660936 0.012487555 -0.026009297 -0.06190372 0.08441759 -0.0862273
-0.12585716 0.024517233 0.15820763 0.033914763 0.018049143 0.15969427 -0.07227641 -0.023334308
-0.08029102 0.015552714 0.1522871 -0.10851879 -0.13381621 -0.059719097 0.11341381 -0.08758947
0.07925212 -0.03341587 0.0487776 0.0562846 0.041511744 -0.016815947 -0.01878524 0.12653941
0.027670784 -0.0024475052 0.012084501 -0.113822944 0.12738423 -0.1144721 0.07353566 0.036484055
-0.007387575 0.107070744 0.123308375 -0.010740307 0.06740939 0.027216751 -0.030074267 -0.089092985
0.006205642 -0.077064045 0.111719616 0.0739549 -0.1320415 0.09197177 -0.072237425 -0.016817374
0.12273015 -0.06673573 0.014066655 -0.1265312 -0.026405172 -0.0011858267 -0.038150217 0.0388293
-0.0129527105 -0.07940246 -0.018107224 0.085145876 -0.0313045 0.14465576 -0.0012078481 -0.065354064
0.0023214424 0.14789705 0.08038088 -0.014041467 -0.109427236 -0.03655074 -0.038150784 -0.035627823
0.04935094 -0.068426184 -0.003378285 -0.07527341 0.06740854 -0.001004907 0.05183951 -0.18224823
-0.013876359 -0.11447882 -0.13753004 -0.14628187 0.13675585 0.09971028 0.082082644 -0.003626289
-0.0995885 -0.06757316 0.14668326 0.020465184 0.033149887 -0.026626475 -0.015279774 0.017010847

conv1.lin.bias f4 [64]
00000000: 8ac7 d13d 1b00 83bd 0706 d73d 4cf4 153c
00000010: d43c 3bbc 57d9 acbd 684b 823c e115 3abc
00000020: 8c3d 153e b0bf 8c3d 0839 d93c 3b4c a43d
00000030: 6689 0b3d 5ea2 ad3b 3457 d83d ea2f df3d
00000040: 7437 4a3d 3647 1fbd 932e 513d 069f 963d
00000050: cede aebc b669 68bc 68aa b7bc 04bd ca3d
00000060: 5613 47bd 8fd0 79bb ecd2 e73c 8982 57bd
00000070: 300a f4bc ab10 393d 9072 903d 8246 d1bc
00000080: 7478 c63c 8585 793c 301c 10be f017 0cbc
00000090: 081a 6d3c 7fbe e1bc bcd0 293d f4f9 8bbd
000000a0: cafe b53d b923 073e 0aec d23d 9ee6 723d
000000b0: 3803 9d3d 8a93 863c c59b a6bd 9927 12bd
000000c0: 3405 0fbd f54b 9abb 084f f23d ff71 b73d
000000d0: f3e6 ab3c 977d b63c 13d0 4a3d 12d4 803d
000000e0: 84f9 103e d9e4 933d b453 6fbd 0906 9a3c
000000f0: f800 083d a1e8 753d 973c 91bd eddc 043e
0.10243137 -0.063965045 0.104991965 0.009152483 -0.011428077 -0.08439892 0.015905097 -0.011357755
0.1457426 0.06872499 0.026516452 0.08022352 0.03406658 0.0052988967 0.10563508 0.10897811
0.04936929 -0.03888627 0.051069807 0.0735455 -0.021346476 -0.01418536 -0.022420123 0.09899333
-0.048602425 -0.0038118695 0.028298818 -0.052614722 -0.029790014 0.04518191 0.07053101 -0.025546316
0.024227358 0.015229587 -0.14073253 -0.008550629 0.014471538 -0.027556656 0.04145883 -0.06834784
0.08886488 0.13197221 0.10298927 0.059301965 0.076666296 0.016427774 -0.081351794 -0.035682295
-0.03491707 -0.004708762 0.1183148 0.0895729 0.020984149 0.022276683 0.04951484 0.06290449
0.14157683 0.072213836 -0.058429435 0.018801706 0.03320405 0.060036305 -0.07091635 0.12974901

conv2.lin.weight f4 [2, 64]
00000000: ea45 d5bd a308 503e 9695 4a3e 81c4 483e
00000010: 8fb3 47bd 75f7 123e cf15 32bc b21c 873d
00000020: 6d78 5fbe 9856 42be f7ac 0d3e b6cc 5cbe
00000030: de01 e23d d589 28be c59a 4dbb 61e0 55be
00000040: 46ce 3d3e 4f6c 5fbe f471 d53d 7a14 04be
00000050: a3c2 0bbe df03 b7bd e8cd f9bc fe1b 45be
00000060: a1ca f53d 765f 113e 9707 393d 0449 68bd
00000070: 0cba 543e 942a 29be 42a9 2a3e 4d98 31be
00000080: 1ba5 323d a551 1b3e de0f 443d 91d8 ed3d
00000090: 60d3 093e 9461 0b3e a520 143d e6da 1d3e
000000a0: 0c25 58be a051 46be f82e f1bd b3ad 043e
000000b0: 6ed3 d13d 5fd3 3dbe 5f25 293e f6f7 363e
000000c0: 3ed6 1c3e 8305 fe3d 2e1e 18be 701c 15be
000000d0: 4465 2a3d 953e 2fbe 311f fbbd d881 21be
000000e0: 9180 57bd c5b4 fe3d be56 4dbd 0ace 3cbe
000000f0: 5104 30be 446e a83d 6711 883d bb80 313e
00000100: 71a1 ea3d 9786 33be 21a5 21be e030 903c
00000110: 5404 5bbd 6ff6 8bbd fa31 573e 4d18 43be
00000120: 1a0f 133e 8158 3b3e 2fa4 1dbe abea 233d
00000130: a568 24be a2db 2d3e 1a37 433e 2e9d 763d
00000140: 2eb8 17bd 1b99 923d f4ad ae3d c281 953d
00000150: 1324 353e 3422 633e 18de 693e 19bc 5f3e
00000160: e0c4 fdbd ccd3 27be f9cf 18be 9c6d b3b8
00000170: cb63 02be 49b1 593e e4af 8fbd 01ac 073e
00000180: e574 4cbe 4118 f8bd bd8e 2ebe 2852 3bbe
00000190: 521f 0ebe 1690 23be ff46 29be 39d3 2fbe
000001a0: 567c adba c0a1 d63d 779e 273e 97b1 9d3c
000001b0: 8465 41be ec27 843d 1b91 d6bc b288 a5bd
000001c0: 6dc6 13bd 64cb 62be cbfb 223e 8eb4 203e
000001d0: 76cc 59be 9ae0 7c3d 3d64 dd3d 9a54 6f3d
000001e0: a611 593e 1fab 02be 7dec 7f3d f59d 553e
000001f0: 867e 513e fa12 53be efd3 5bbe aaeb 38be
-0.10413726 0.20315795 0.19783625 0.1960621 -0.048755225 0.1435221 -0.010869457 0.0659727
-0.21823283 -0.18978345 0.13835512 -0.21562466 0.110355124 -0.16458829 -0.0031372767 -0.20886375
0.18535718 -0.2181866 0.104221255 -0.12898436 -0.13648467 -0.08936285 -0.030493692 -0.1924896
0.12001539 0.14196572 0.045173254 -0.056710258 0.20774096 -0.16520149 0.16666129 -0.17343254
0.043614488 0.15167864 0.047866695 0.116135724 0.1345954 0.13611442 0.036163945 0.15415534
-0.21107882 -0.19367075 -0.11776537 0.12956886 0.10245405 -0.18537663 0.16518162 0.17868027
0.15316102 0.12403395 -0.14855263 -0.1456163 0.04160048 -0.17113717 -0.12261809 -0.15772188
-0.052612845 0.12436823 -0.050131552 -0.18437973 -0.17189147 0.082241565 0.06643944 0.17334263
0.11456574 -0.1753181 -0.15785648 0.01760143 -0.053470924 -0.06834113 0.21015158 -0.19052239
0.1436123 0.1829548 -0.15394662 0.04001872 -0.16055544 0.16978315 0.19063988 0.060208492
-0.03704088 0.07158109 0.08529273 0.0730014 0.17689542 0.22181016 0.22838628 0.21849097
-0.123910666 -0.16389388 -0.14923085 -8.5558015e-05 -0.1273338 0.21259035 -0.0701597 0.13249208
-0.19966467 -0.12114001 -0.17046638 -0.18293059 -0.13879135 -0.15972933 -0.16530989 -0.17170419
-0.0013235908 0.1048007 0.16369043 0.01924972 -0.18886381 0.06452927 -0.026192239 -0.08082713
-0.036077905 -0.221479 0.15916364 0.15693876 -0.21269402 0.061737634 0.108101346 0.05843029
0.21198139 -0.1276059 0.062481392 0.20861037 0.20458421 -0.20612708 -0.21467565 -0.18058649

conv2.lin.bias f4 [2]
00000000: bc62 50bb 8522 91bd
-0.0031797132 -0.07086662
